EEGNet_LeakyReLU0.8675.pt (torch, 83695 bytes, 17 tensors)

weight f4 [16, 1, 1, 51]
0	0xbd2530ce	-0.040329747
1	0x3d450cdf	0.048107978
2	0x3d32f8f1	0.04369444
3	0xbb76b112	-0.0037642163
4	0xbc5e91b8	-0.013584547
5	0x3b02f4f7	0.0019982436
6	0x3c9da148	0.019241944
7	0x3c256e1b	0.010097052
8	0xbc3d264f	-0.011544778
9	0xbd096017	-0.033538904
10	0xbd4e36db	-0.050345283
11	0xbcce22bc	-0.025163047
12	0x3ceb491a	0.028721381
13	0x3ce7b984	0.028286703
14	0x3c7488ec	0.014925223
15	0xbcada18e	-0.0211952
16	0xbcb24da1	-0.021765532
17	0x3c0efb41	0.008726896
18	0x3d352529	0.04422489
19	0x3d205559	0.039143894
20	0xbc8bd78c	-0.017070554
21	0xbd2f63e8	-0.042819887
22	0xbceb3fca	-0.02871694
23	0x3ba5c3f7	0.005058761
24	0x3cc5b273	0.024132943
25	0x3c5becd0	0.01342316
26	0xbd29818d	-0.041383315
27	0xbd2b58c6	-0.041832708
28	0xbba0392f	-0.0048896293
29	0x3d221a56	0.039575897
30	0x3d3a6f3b	0.045516234
31	0x3c87049e	0.016481694
32	0xbc90806b	-0.01763936
33	0xbd1a83c2	-0.03772331
34	0x3c469a9f	0.0121218255
35	0x3d1fd697	0.03902301
36	0x3cde0f22	0.027106825
37	0xbcd54a21	-0.026036324
38	0xbd673939	-0.056451056
39	0xbd5b4507	-0.053532626
40	0xbb30ea1d	-0.002699501
41	0x3d25193c	0.04030727
42	0x3cee9720	0.029124796
43	0x3bf2e9a7	0.0074131074
44	0xbca9167b	-0.020640602
45	0xbc33424e	-0.010941101
46	0x3d11a493	0.03555734
47	0x3d683fac	0.056701347
48	0x3cae518f	0.021279125
49	0xbcddb9a7	-0.027066065
50	0xbd905960	-0.07048297
51	0x3d9dc08b	0.0770274
52	0x3cc9afac	0.0246199
53	0xbcd3c777	-0.025851948
54	0xbce3f0d1	-0.027824791
55	0xbba0acfc	-0.004903434
56	0x3cdd4063	0.027008241
57	0x3d3e50fb	0.046463948
58	0x3d086320	0.033297658
59	0xbbbf1530	-0.005831383
60	0xbc66fb46	-0.014097994
61	0xbc02b95e	-0.007978765
62	0x3beb2bb3	0.00717684
63	0x3cec0461	0.028810682
64	0x3cacbbeb	0.0210857
65	0xbc52307d	-0.012828943
66	0xbc8aad04	-0.016928203
67	0x3bb554ed	0.0055338056
68	0x3c436757	0.011926494
69	0x3d0585b4	0.032598212
70	0x3c9453ed	0.018106425
71	0xbc8c20ee	-0.017105546
72	0xbcb939e0	-0.022610605
73	0xbb43656c	-0.002981509
74	0x3c3be210	0.011467472
75	0x3cca5e02	0.02470303
76	0x3cbfe621	0.023425164
77	0x3b85fae0	0.0040887445
78	0xbc954f99	-0.018226432
79	0xbcca2770	-0.024677008
80	0xbc3e3b53	-0.011610824
81	0x3ccb5cb0	0.02482447
82	0x3ce455bb	0.02787291
83	0x3c4a80d1	0.012359814
84	0xbc701202	-0.014652731
85	0xbc47a12e	-0.012184424
86	0xbc875455	-0.016519705
87	0xbaa0b65e	-0.0012261381
88	0x3ca4bd1b	0.020109704
89	0x3c822bd6	0.015890043
90	0xbc84a592	-0.016192231
91	0xbcf51b3f	-0.029920219
92	0xbbe37d88	-0.0069424547
93	0x3cc990ce	0.024605181
94	0x3c8fb1b7	0.017540796
95	0x3bfe0370	0.0077518746
96	0xba865fca	-0.0010251936
97	0xbc8374af	-0.01604685
98	0xbcc640ce	-0.024200823
99	0xba25eb56	-0.0006329318
100	0x3c914bf2	0.017736409
101	0x3d07d48a	0.033161677
102	0xbce21e6f	-0.027602402
103	0xbcc54821	-0.024082245
104	0xbcf37212	-0.029717479
105	0xbd0e8fea	-0.034805216
106	0xbd0cb59b	-0.03435288
107	0xbd11634e	-0.035495095
108	0xbcfd1847	-0.030895365
109	0xbcb4f6ce	-0.022090342
110	0xbcaa5fe7	-0.020797683
111	0xbcb94308	-0.02261497
112	0xbca585ff	-0.020205496
113	0xbc5f398f	-0.013624563
114	0xbc1a7087	-0.009426243
115	0x3a8d0029	0.0010757494
116	0x3c11e836	0.008905461
117	0x3c40cadd	0.011767116
118	0x3b8de6ca	0.0043304907
119	0x3b9eff51	0.0048522134
120	0x3c45c0d9	0.012069904
121	0x3c32b9a6	0.01090852
122	0x39d61623	0.00040833754
123	0xbc00c75b	-0.00786003
124	0xbc065dd8	-0.008201085
125	0xbbc91c69	-0.00613742
126	0x3b12e19d	0.0022412308
127	0xbb3b3c32	-0.0028569815
128	0xbb015b48	-0.0019738246
129	0x3a77bced	0.00094504544
130	0x3bf3a2a5	0.00743516
131	0x3c3259ee	0.010885699
132	0x3c84efd2	0.016227636
133	0x3c762449	0.0150232995
134	0x3c76eed4	0.0150715895
135	0x3c4211da	0.011845076
136	0x3c3f9807	0.011693961
137	0x3c479c37	0.012183241
138	0x3c0f92e1	0.008763046
139	0x3b5bb77d	0.0033526116
140	0x3a42866b	0.00074205425
141	0xbb9f6cb5	-0.004865254
142	0xbc1957cd	-0.009359312
143	0xbbdc9ae9	-0.006732334
144	0xbb39b75a	-0.0028338046
145	0xb8df0408	-0.000106342195
146	0x3b85bf87	0.0040816697
147	0x3ba50704	0.0050362367
148	0x3b193a5c	0.0023380732
149	0xbba009b8	-0.004883971
150	0xbc05f6d4	-0.008176524
151	0xbc1a8745	-0.009431665
152	0xbc719535	-0.014745046
153	0xbc855566	-0.016276073
154	0x3acae9b6	0.0015481028
155	0x3b8bf83e	0.004271536
156	0x3be48255	0.0069735446
157	0xbcf4cceb	-0.029882869
158	0xbc36c04b	-0.011154245
159	0x3cef5ea6	0.029219937
160	0x3d11f387	0.035632636
161	0x3cdf2a86	0.027241956
162	0x3c2ab5ca	0.010419318
163	0xbc547c2a	-0.012969056
164	0x3b3c83c0	0.0028765053
165	0xbb09d646	-0.0021032258
166	0x3ab4b322	0.0013786296
167	0x3bffafb0	0.007802926
168	0xbc6aa0bc	-0.014320549
169	0xbd9bf197	-0.07614439
170	0xbcd82a88	-0.026387468
171	0x3d18ca1d	0.037302125
172	0x3d28211e	0.041047208
173	0xbb2d15e5	-0.0026410755
174	0xbafb63a4	-0.0019179475
175	0xbcf6c4ed	-0.030123198
176	0x3ba2c7f6	0.004967685
177	0x3d0afa2b	0.033929985
178	0x3d44ed10	0.048077643
179	0xbb280694	-0.0025638686
180	0xbd445347	-0.047930982
181	0xbd1dd0ac	-0.038529083
182	0xbc89169a	-0.01673441
183	0x3d32e956	0.043679558
184	0x3cc428e0	0.023945272
185	0xbd244fde	-0.04011523
186	0xbd755e40	-0.059904337
187	0xbc04d632	-0.008107709
188	0x3d71fffa	0.05908201
189	0x3d597d75	0.05309816
190	0x3c0c944b	0.008580278
191	0xbb486a83	-0.0030581064
192	0xbcf8f876	-0.030391913
193	0xbce5c81a	-0.028049517
194	0x3d3e4082	0.04644824
195	0x3cb3ab70	0.021932334
196	0x3cc5a286	0.024125349
197	0xbd5a52ed	-0.05330174
198	0xbd2fac08	-0.04288867
199	0xbcaf98cf	-0.02143517
200	0x3d3f68b9	0.04673073
201	0x3c9686fb	0.01837491
202	0xbc71fd96	-0.014769932
203	0x3b983a34	0.00464561
204	0xbc0569fa	-0.008142943
205	0x3c89716a	0.016777713
206	0x3a9794be	0.0011564714
207	0x3c07880c	0.008272182
208	0x3c87b32e	0.016564932
209	0x3c8fb03a	0.017540086
210	0xbbb09e91	-0.0053899963
211	0xbc904a3a	-0.017613519
212	0xbd073cac	-0.033016846
213	0xbd2571a8	-0.040391594
214	0xbcc9cb81	-0.024633171
215	0xbbed641a	-0.007244599
216	0xbc77b819	-0.015119576
217	0xbc378abd	-0.011202511
218	0x3c93bef1	0.018035384
219	0x3cae10ec	0.021248303
220	0x3c5b3925	0.013380324
221	0x3c9d57d2	0.019206915
222	0x3d483845	0.048881788
223	0x3cebe9da	0.028798033
224	0x3c1dd451	0.00963314
225	0xbbb25912	-0.005442747
226	0xbb4231a0	-0.002963163
227	0xbcb31c21	-0.021863999
228	0xbd473705	-0.048636455
229	0xbd01f07a	-0.031723477
230	0xbc0c0279	-0.008545511
231	0xbb48fafe	-0.003066718
232	0xb9dbb1be	-0.00041903363
233	0x3c108739	0.008821302
234	0x3cd4dc5a	0.025983978
235	0x3cfd98ae	0.030956592
236	0x3ce79654	0.028269924
237	0x3c7f227b	0.015572186
238	0x3c2c4a8e	0.010515822
239	0x3b2761d2	0.0025540483
240	0xbc3949ae	-0.0113090705
241	0xbcd7058c	-0.026247762
242	0xbceff116	-0.029289763
243	0xbcf2d0bb	-0.029640546
244	0xbcabe747	-0.020984305
245	0xbc0e922a	-0.00870184
246	0xbc0e5371	-0.008686886
247	0xbc10e361	-0.008843274
248	0x3b781b19	0.0037857948
249	0x3d06805d	0.03283726
250	0x3cfe369f	0.031031905
251	0x3cd1cdb8	0.02561079
252	0x3c6b9faa	0.014381329
253	0x3caec498	0.021333978
254	0xbcf709d0	-0.030156046
255	0xbc694141	-0.014236749

weight f4 [16]
0	0x3d8121fc	0.0630531
1	0x3dd92b56	0.10603969
2	0x3db72977	0.08943456
3	0x3dc66640	0.096874714
4	0x3d8f76d1	0.07005084
5	0x3d9fc32e	0.078008994
6	0x3dd46896	0.10371511
7	0x3d95388d	0.07286177
8	0x3d9cb63b	0.07651945
9	0x3d8f5c57	0.07000034
10	0x3d97259f	0.073802225
11	0x3d9837ad	0.07432494
12	0x3d9ddf7c	0.07708642
13	0x3d951c09	0.07280738
14	0x3d994248	0.07483345
15	0x3d96e3d0	0.073676705

bias f4 [16]
0	0xb816af11	-3.592583e-05
1	0xb74e98c9	-1.231413e-05
2	0x3660ca93	3.3496515e-06
3	0xb6b7ad05	-5.473967e-06
4	0x38228338	3.8746017e-05
5	0x3814f573	3.5514542e-05
6	0x36ad4226	5.1635025e-06
7	0xb891df3a	-6.955718e-05
8	0xb6423580	-2.8939394e-06
9	0xb7681cb7	-1.3834963e-05
10	0xb7d41615	-2.5282652e-05
11	0x37d24776	2.5067227e-05
12	0x3820c640	3.8331607e-05
13	0x37251cbb	9.841456e-06
14	0x37064936	8.004068e-06
15	0xb7e396c9	-2.7130724e-05

running_mean f4 [16]
0	0x3a81c947	0.0009901904
1	0xbc1f1ff0	-0.009712204
2	0x3c02a62f	0.007974192
3	0xba5d5167	-0.0008442611
4	0xb9f3a7fc	-0.0004647373
5	0x3c14dfaa	0.009086529
6	0x39c8671a	0.0003822379
7	0x39911d43	0.00027678357
8	0x39847914	0.00025267212
9	0x3c1a4749	0.00941641
10	0xbbdd8bc0	-0.0067610443
11	0x3c676193	0.014122385
12	0x39a203a9	0.00030901775
13	0xb94b3fe8	-0.00019383396
14	0xba0cb074	-0.000536687
15	0xba5e4908	-0.00084795104

running_var f4 [16]
0	0x3fba1260	1.4536858
1	0x3f91b9c7	1.138482
2	0x3ff61cde	1.922756
3	0x3f8da384	1.1065526
4	0x40244793	2.5668685
5	0x3f390a12	0.7228099
6	0x3f7ce23c	0.98782706
7	0x3f3cb1c7	0.73708767
8	0x3f8a649e	1.0811956
9	0x3f808160	1.0039482
10	0x3febfef8	1.8437185
11	0x403e2c97	2.9714715
12	0x3f78c07a	0.97168696
13	0x3f04ddf5	0.5190118
14	0x3f0d99c9	0.5531278
15	0x3edb62fa	0.4284895

weight f4 [32, 1, 2, 1]
0	0xbbc228f0	-0.0059252903
1	0x3d4b49dc	0.049630985
2	0x3b2de078	0.00265315
3	0xbd627ccd	-0.0552948
4	0x3cbfe23c	0.023423307
5	0xbd89b4ee	-0.06723963
6	0xbd8cc139	-0.06872792
7	0x3d968fcb	0.07351645
8	0x3daf09c4	0.085467845
9	0xbca938c1	-0.020656945
10	0x3d382513	0.04495723
11	0xbd2f5a74	-0.042810872
12	0xbd9f9f93	-0.07794108
13	0x3beb24c0	0.007176012
14	0xbd98897a	-0.074480966
15	0x3c07eb7d	0.008295891
16	0x3cd6a556	0.026201885
17	0xbd67a106	-0.05655005
18	0x3cb379aa	0.0219086
19	0xbd6f6d1f	-0.058453675
20	0xbda0185a	-0.07817145
21	0x3d0ac266	0.0338768
22	0x3ceef2f3	0.029168582
23	0x3c9dcd75	0.019263009
24	0xbc6a73a5	-0.014309798
25	0x3dc0db87	0.094168715
26	0xbd887305	-0.06662563
27	0x3c269841	0.010168136
28	0x3b50ed10	0.0031879582
29	0xbd796ac2	-0.060892828
30	0x3c02654c	0.007958721
31	0xbd6b4575	-0.057439286
32	0xbd72cba1	-0.059276227
33	0x3cd64f7a	0.026160944
34	0xbd6ccec3	-0.05781437
35	0x3ccee8fb	0.025257578
36	0xbbbce25e	-0.0057642898
37	0xbd2adef1	-0.04171652
38	0x3d5e7275	0.054308373
39	0xbd1fb726	-0.038993023
40	0x3d8ef3cf	0.069800965
41	0x3bb3429b	0.0054705865
42	0xbcc43e35	-0.023955444
43	0x3d559dc2	0.052152403
44	0xbd6ce079	-0.05783126
45	0x3d601eb2	0.054716773
46	0x3b973d37	0.0046154517
47	0xbd3ff4e4	-0.046864405
48	0xba79c385	-0.0009527731
49	0x3d0bf41f	0.03416836
50	0xbd72b261	-0.059252147
51	0x3d538aa9	0.05164591
52	0x3c5ca5be	0.01346725
53	0xbd6e069a	-0.058111764
54	0x3c5e5534	0.013570119
55	0xbd6a77f8	-0.057243317
56	0x3c453b7e	0.01203811
57	0xbdaac7b1	-0.08338869
58	0xbda1a5c5	-0.07892946
59	0x3d2ce66e	0.042211942
60	0xbc929536	-0.017893415
61	0x3d6ca497	0.057774153
62	0xbd969b11	-0.07353795
63	0x3c8691ed	0.016427005

weight f4 [32]
0	0x3e13b0df	0.1442294
1	0x3e2f6165	0.17126997
2	0x3dc61989	0.09672839
3	0x3d9eb509	0.077493735
4	0x3dc10491	0.09424699
5	0x3d2f6260	0.042818427
6	0x3df68240	0.12036562
7	0x3df28bb6	0.11843054
8	0x3ddc9523	0.10770633
9	0x3dc496b9	0.095990606
10	0x3dd8395c	0.105578154
11	0x3d34a434	0.04410191
12	0x3e346318	0.17615926
13	0x3e079369	0.13239826
14	0x3e07f9fa	0.13278952
15	0x3e05fcb2	0.13084677
16	0x3e06af54	0.1315282
17	0x3db024f9	0.08600802
18	0x3d497680	0.049185276
19	0x3d7c7cb1	0.061642352
20	0x3ddcda54	0.1078383
21	0x3daaf660	0.083477736
22	0x3d3aca38	0.045603007
23	0x3de1732d	0.11008296
24	0x3d1c8c7f	0.038219925
25	0x3dc65090	0.09683335
26	0x3dfab2ad	0.12241111
27	0x3df8cf97	0.121489696
28	0x3db80d64	0.08986929
29	0x3da9424d	0.08264599
30	0x3dc2eac8	0.09517437
31	0x3e360437	0.17775045

bias f4 [32]
0	0xbd2fce3f	-0.0429213
1	0xbd8b1405	-0.06790928
2	0xbd5c30c5	-0.053757448
3	0x3c7369d4	0.014856774
4	0xbd9005ad	-0.070323326
5	0x3c91a241	0.017777564
6	0xbd8d3e71	-0.068966754
7	0xbd8ecfaa	-0.069732025
8	0xbd485548	-0.048909456
9	0xbd322402	-0.04349137
10	0xbd02add1	-0.031904045
11	0xbbeed161	-0.0072881435
12	0xbdecc8d9	-0.11561746
13	0xbd475734	-0.048667148
14	0xbd98e1da	-0.07464953
15	0xbd9f2083	-0.07769873
16	0xbd8d4cf5	-0.06899444
17	0xbd313cd6	-0.04327091
18	0xbc7236a4	-0.014783535
19	0xbca6a59a	-0.020342637
20	0xbd9db794	-0.077010304
21	0xbce98b08	-0.028508678
22	0x3c818d1e	0.01581436
23	0xbdbcf737	-0.0922684
24	0xbbfdbe14	-0.0077436063
25	0xbd048fbe	-0.032363646
26	0xbcf6d2a7	-0.030129744
27	0xbcf45661	-0.029826345
28	0xbd30dceb	-0.043179434
29	0xbcb6933a	-0.022287
30	0xbc509f49	-0.012733289
31	0xbd652fe2	-0.055953868

running_mean f4 [32]
0	0x3508934d	5.08783e-07
1	0xb50f8ee7	-5.34796e-07
2	0x381c06a5	3.7199487e-05
3	0xb875b2e6	-5.8579164e-05
4	0xb7d7ef9a	-2.574157e-05
5	0xb7b4e117	-2.1562488e-05
6	0xb5a6890e	-1.2407852e-06
7	0xb5a2dfca	-1.2135072e-06
8	0xb5cb8b58	-1.5165233e-06
9	0xb5c3573c	-1.4554021e-06
10	0x37a52002	1.9684438e-05
11	0xb5f05f2f	-1.7909096e-06
12	0xb54acf2e	-7.555235e-07
13	0xb5191d20	-5.7039324e-07
14	0xb5b810ab	-1.3713919e-06
15	0xb5b6fed3	-1.363422e-06
16	0x35813967	9.627955e-07
17	0x357b703d	9.3668115e-07
18	0xb58825d4	-1.0143799e-06
19	0xb62bcda9	-2.5600696e-06
20	0x370e0e78	8.467228e-06
21	0xb7281f07	-1.0020804e-05
22	0x38138a47	3.5176312e-05
23	0xb78b20bd	-1.6585336e-05
24	0x35ad1cac	1.2897849e-06
25	0x36915542	4.331262e-06
26	0x35e812fc	1.7290872e-06
27	0x35e7136a	1.7216491e-06
28	0x35d3121d	1.5725997e-06
29	0xb5f4a803	-1.8228315e-06
30	0xb627c91d	-2.5002003e-06
31	0xb647dade	-2.9780708e-06

running_var f4 [32]
0	0x370e1292	8.468183e-06
1	0x373d41e0	1.1280616e-05
2	0x3815c2c2	3.570575e-05
3	0x3848996d	4.7826605e-05
4	0x38350245	4.3155876e-05
5	0x3712208b	8.709855e-06
6	0x38547e0b	5.0662125e-05
7	0x383e9aa9	4.544357e-05
8	0x3708ae0e	8.146757e-06
9	0x3725c946	9.881629e-06
10	0x37cb3290	2.422303e-05
11	0x373d6cf2	1.1290644e-05
12	0x38bc0d68	8.967036e-05
13	0x381a4c77	3.6787675e-05
14	0x3795afa5	1.7843975e-05
15	0x37781c44	1.4788533e-05
16	0x37472650	1.1870245e-05
17	0x373b454f	1.1162206e-05
18	0x37315211	1.056913e-05
19	0x36d75c0b	6.4182145e-06
20	0x380025ac	3.0552663e-05
21	0x3707db3b	8.097671e-06
22	0x373d2772	1.1274462e-05
23	0x37378d00	1.0940479e-05
24	0x36e3d928	6.7904075e-06
25	0x3730282e	1.04997725e-05
26	0x3779bc3d	1.4885384e-05
27	0x376f2ec3	1.4256398e-05
28	0x38193594	3.652794e-05
29	0x38011df0	3.0783878e-05
30	0x3781131d	1.5386899e-05
31	0x37c60f94	2.3610693e-05

weight f4 [32, 32, 1, 15]
0	0x3c719f03	0.014747384
1	0x3c728cec	0.014804106
2	0x3c5b9a11	0.0134034315
3	0x3c51db9a	0.012808705
4	0x3c569496	0.013096949
5	0x3c42ebd8	0.01189705
6	0x3c5a3525	0.013318335
7	0x3c4e2f04	0.012584452
8	0x3c80df15	0.015731374
9	0x3c8a5e15	0.016890565
10	0x3c8ec16e	0.017426219
11	0x3c83d1dc	0.01609128
12	0x3caeb39a	0.021325875
13	0x3cc7a543	0.024370795
14	0x3ca914b8	0.020639762
15	0x3c8835ad	0.016627157
16	0x3c9cdfbf	0.01914966
17	0x3c939f13	0.018020188
18	0x3c7427d3	0.014902073
19	0x3c7f1ad4	0.015570361
20	0x3c656792	0.014001744
21	0x3c684ac8	0.0141779855
22	0x3c5feaf8	0.013666861
23	0x3c625ec0	0.0138165355
24	0x3c60d52e	0.013722701
25	0x3c924747	0.017856253
26	0x3c970e50	0.018439442
27	0x3c92d72f	0.017924873
28	0x3ca93988	0.020657316
29	0x3cb99301	0.022653105
30	0x3c3c2bd6	0.011485061
31	0x3c209b6e	0.009802682
32	0x3c2101bb	0.009827073
33	0x3c184147	0.009292907
34	0x3c0a55cd	0.008443308
35	0x3c12aa8f	0.008951797
36	0x3c1ee3b7	0.009697846
37	0x3c1135aa	0.008862892
38	0x3c1ace52	0.009448605
39	0x3bee71c5	0.007276746
40	0x3be7f052	0.007078209
41	0x3be91e5e	0.0071142158
42	0x3bfc7cb4	0.0077052955
43	0x3c157ee0	0.009124488
44	0x3c3aadff	0.011394023
45	0x3c9a1f71	0.01881382
46	0x3c82c584	0.015963323
47	0x3c40c5e0	0.011765927
48	0x3c2cb882	0.010542037
49	0x3c0adcb0	0.008475468
50	0x3bb8ae2a	0.0056359963
51	0x3b74464d	0.0037273348
52	0x3b6fbc9c	0.0036580926
53	0x3b69a7d8	0.0035653021
54	0x3b976329	0.004619975
55	0x3b9d897a	0.0048076482
56	0x3b8e6793	0.004345843
57	0x3b7bb965	0.0038410064
58	0x3b45fd1f	0.0030210686
59	0x3b5b24ce	0.0033438685
60	0xbcc76dd0	-0.024344355
61	0xbc9fedf6	-0.019522648
62	0xbc8e303d	-0.017356986
63	0xbc8e04b9	-0.017336236
64	0xbc71a29a	-0.01474824
65	0xbc72a6bf	-0.014810263
66	0xbc821c06	-0.015882503
67	0xbc84b1a6	-0.01619799
68	0xbc6f0913	-0.014589566
69	0xbc535755	-0.01289924
70	0xbc4e7c84	-0.012602929
71	0xbc48b873	-0.012251007
72	0xbc43e51a	-0.011956478
73	0xbc37ddf9	-0.011222356
74	0xbc73eadc	-0.014887538
75	0x3c477970	0.012174949
76	0x3c0795c7	0.008275456
77	0x3bbf0593	0.005829522
78	0x3b9c9047	0.0047779414
79	0x3b94b7e7	0.0045385244
80	0x3b781834	0.0037856223
81	0x3af06dfb	0.0018343324
82	0xbae9b287	-0.0017829695
83	0xba937375	-0.0011249619
84	0x3a413d54	0.00073715043
85	0x3af9c9bf	0.0019057317
86	0x3ab4ebd2	0.001380319
87	0xba897e2c	-0.0010489873
88	0xba2a9817	-0.00065076485
89	0xbaeebcd7	-0.0018214238
90	0xbc799531	-0.015233324
91	0xbc88845c	-0.016664676
92	0xbc8b64c2	-0.017015819
93	0xbc71aac4	-0.014750186
94	0xbc4db52a	-0.0125554
95	0xbc4674fe	-0.012112854
96	0xbc47a3ed	-0.012185079
97	0xbc3043ae	-0.010758324
98	0xbc43496e	-0.0119193625
99	0xbc247cad	-0.010039491
100	0xbc3da9d7	-0.0115761375
101	0xbc6d087f	-0.014467358
102	0xbc99fb27	-0.018796517
103	0xbc9e8daa	-0.01935466
104	0xbc8a463d	-0.016879195
105	0xbc595f5b	-0.013267363
106	0xbc788f3d	-0.015170869
107	0xbc840fe3	-0.016120857
108	0xbc602c21	-0.013682396
109	0xbc3dbd99	-0.011580848
110	0xbc516576	-0.012780538
111	0xbc5030c9	-0.012706944
112	0xbc35b275	-0.011089911
113	0xbc49341f	-0.012280493
114	0xbc42e6bc	-0.011895832
115	0xbc442536	-0.011971762
116	0xbc66b50d	-0.014081252
117	0xbc8cac42	-0.017171983
118	0xbc94a972	-0.018147204
119	0xbc8de99a	-0.017323304
120	0xbbf701ce	-0.007538057
121	0xbc04e532	-0.008111285
122	0xbc1ff025	-0.009761845
123	0xbc0cb120	-0.008587152
124	0xbc110a1e	-0.00885251
125	0xbc30b823	-0.010786089
126	0xbc142167	-0.009041167
127	0xbc0eb1f7	-0.008709422
128	0xbc2fc128	-0.010727204
129	0xbc351ea6	-0.01105467
130	0xbc243c58	-0.010024153
131	0xbc523135	-0.012829115
132	0xbc6357bb	-0.013875897
133	0xbc519e0c	-0.012794029
134	0xbc4c111a	-0.012455249
135	0xbc0e9b5f	-0.008704036
136	0xbbf77412	-0.0075516785
137	0xbc14a125	-0.009071623
138	0xbc0baa78	-0.00852453
139	0xbc09857b	-0.008393641
140	0xbc30184d	-0.010747981
141	0xbc301646	-0.010747498
142	0xbc2880fb	-0.010284658
143	0xbc414038	-0.011795096
144	0xbc496910	-0.012293115
145	0xbc2fcd51	-0.010730104
146	0xbc57060c	-0.013124
147	0xbc764646	-0.015031403
148	0xbc52d18a	-0.012867341
149	0xbc557adf	-0.013029783
150	0xbc5489df	-0.012972324
151	0xbc4b5ae6	-0.012411809
152	0xbc4ced46	-0.012507742
153	0xbc412ab7	-0.011789969
154	0xbc4ad95d	-0.012380925
155	0xbc4ba9d6	-0.012430629
156	0xbc31692a	-0.010828296
157	0xbc395c85	-0.011313562
158	0xbc4cf2bc	-0.012509044
159	0xbc5d2a98	-0.013498925
160	0xbc5793d3	-0.013157803
161	0xbc70cccc	-0.014697265
162	0xbc77f43c	-0.015133914
163	0xbc7b7f08	-0.015350111
164	0xbc7ae5b6	-0.015313556
165	0xbbce79e5	-0.006301152
166	0xbbab9545	-0.0052363
167	0xbb925f7f	-0.0044669504
168	0xbbb9265e	-0.0056503257
169	0xbb46ebb3	-0.003035289
170	0xbbd933c9	-0.0066284877
171	0xbbbbe656	-0.0057342453
172	0xbbaf4c22	-0.005349652
173	0xbbb0f642	-0.00540045
174	0xbbc3204d	-0.0059547783
175	0xbbea7d41	-0.0071560447
176	0xbbc616c6	-0.0060451953
177	0xbc1eb6df	-0.009687155
178	0xbbf169f8	-0.007367369
179	0xbbf9b7a8	-0.0076207705
180	0xbc807a6b	-0.015683373
181	0xbc9b96c8	-0.018992797
182	0xbc9ab138	-0.018883333
183	0xbc7326db	-0.014840807
184	0xbc895a81	-0.016766788
185	0xbc48c9d6	-0.012255153
186	0xbc43d434	-0.011952449
187	0xbc4f8cbe	-0.012667833
188	0xbc3decf4	-0.011592139
189	0xbc419b72	-0.011816846
190	0xbc6c793d	-0.014433202
191	0xbc5b338b	-0.013378988
192	0xbc9076bc	-0.017634742
193	0xbca045c4	-0.019564517
194	0xbc9bc074	-0.019012667
195	0x3c543a11	0.012953297
196	0x3c86dfb4	0.016464092
197	0x3c7f0f04	0.015567545
198	0x3c2961a5	0.010338222
199	0x3c27efcc	0.010250043
200	0x3c074b39	0.008257681
201	0x3c02f4ff	0.007992982
202	0x3c047955	0.008085568
203	0x3c0dcf01	0.008655311
204	0x3bd636d8	0.0065372996
205	0x3c11cc3d	0.008898792
206	0x3bfa4452	0.007637539
207	0x3c00e590	0.007867232
208	0x3c055924	0.008138929
209	0x3c235a07	0.009970195
210	0xbbdadebe	-0.006679385
211	0xbb8e0cb4	-0.0043350104
212	0xbb691091	-0.0035562853
213	0xba0b022b	-0.0005302752
214	0xb9a8d3e5	-0.0003220133
215	0xb92ea542	-0.00016655496
216	0xb9f88d49	-0.00047407512
217	0x37d9c0ed	2.5958254e-05
218	0x3b2a9314	0.0026027607
219	0x3b33b4dc	0.0027421033
220	0x3b138c37	0.0022513994
221	0x3bc0cf9f	0.0058841254
222	0x3bd672af	0.006544433
223	0x3beaacaf	0.007161699
224	0x3c1a0fb8	0.009403162
225	0xbc003f8c	-0.007827651
226	0xbbd1b69e	-0.0063999435
227	0xbbb14747	-0.0054101082
228	0xbb124736	-0.0022320277
229	0xbaea0ba3	-0.0017856251
230	0xba5d1235	-0.0008433194
231	0xbaa6aec6	-0.0012716881
232	0xbaa7e2be	-0.0012808663
233	0x3a1891e0	0.0005820077
234	0x3acb7ec8	0.0015525455
235	0x3a924a41	0.0011161045
236	0x3b9afe61	0.0047300314
237	0x3bbecbc6	0.0058226315
238	0x3bdf68f3	0.006817931
239	0x3bf0caf9	0.007348415
240	0x3c02c46f	0.007981404
241	0x3c17323d	0.009228286
242	0x3c179364	0.009251449
243	0x3c1411c8	0.0090374425
244	0x3c0aaf35	0.008464624
245	0x3c0c7714	0.008573312
246	0x3bf56ab1	0.0074895252
247	0x3c1211e3	0.008915397
248	0x3c1c0a2d	0.0095239105
249	0x3c480de5	0.012210344
250	0x3c47a19c	0.012184527
251	0x3c471bad	0.0121525945
252	0x3c5e63c0	0.013573587
253	0x3c7cd95e	0.015432684
254	0x3c6fefd8	0.014644586
255	0x3bd7bdb7	0.006583895

weight f4 [32]
0	0x3edbdcf2	0.42942005
1	0x3e97c12c	0.29639566
2	0x3e4c80ae	0.19970962
3	0x3e68f1f4	0.22748548
4	0x3e085249	0.1331264
5	0x3ea6a5e7	0.32548448
6	0x3da24f32	0.079252616
7	0x3e838b53	0.25692233
8	0x3ee96af7	0.4558942
9	0x3eb040f3	0.34424552
10	0x3ec382ec	0.38185823
11	0x3e813608	0.25236535
12	0x3e87ecb7	0.26547787
13	0x3ec99c8d	0.3937725
14	0x3e54afa3	0.20770125
15	0x3e14aa9a	0.14518204
16	0x3d90daf2	0.070730105
17	0x3edf2457	0.43582413
18	0x3e848ab2	0.25887066
19	0x3e31c12f	0.1735885
20	0x3ca5bb81	0.02023101
21	0x3e91ab2d	0.2845091
22	0x3ed7f23c	0.42176998
23	0x3ebf1472	0.37320286
24	0x3e4fa8f8	0.202793
25	0x3edcde70	0.43138456
26	0x3e86f5f7	0.2635953
27	0x3eae6b7b	0.34066376
28	0x3e913d5b	0.28367123
29	0x3e3f728a	0.18696037
30	0x3e7adae2	0.2449756
31	0x3e301d23	0.17198615

bias f4 [32]
0	0x3e18812e	0.14893028
1	0x3e122b73	0.14274387
2	0x3dc84c03	0.09780123
3	0x3dde4e56	0.10854785
4	0x3d917beb	0.071037136
5	0x3e1e8832	0.15481642
6	0x3d37a554	0.044835404
7	0x3deff22f	0.11716115
8	0x3e2aee1c	0.16692394
9	0x3df8c14e	0.12146245
10	0x3e269243	0.16266732
11	0x3df95b79	0.1217565
12	0x3ddf04ba	0.108895734
13	0x3e39740b	0.18110673
14	0x3ddedafa	0.1088161
15	0x3d8ebcd1	0.069696076
16	0x3d0c52b6	0.034258567
17	0x3e4a89ed	0.19779177
18	0x3dfcabc6	0.12337451
19	0x3ddf33e6	0.10898571
20	0x3c13c74d	0.009019685
21	0x3e27d0f5	0.16388305
22	0x3e46aa2c	0.19400853
23	0x3e071a80	0.13193703
24	0x3dd222d4	0.10260549
25	0x3e317bc3	0.17332368
26	0x3e03479b	0.12820284
27	0x3e20ebea	0.15714994
28	0x3dd92731	0.10603178
29	0x3db74330	0.08948362
30	0x3e11dc33	0.14244156
31	0x3da8478f	0.08216774

running_mean f4 [32]
0	0xba8979cb	-0.0010488568
1	0xbba7143f	-0.005098849
2	0x3b5832d4	0.003298928
3	0x3b44af69	0.003001178
4	0xbadc02e8	-0.0016785534
5	0xbb7d39e1	-0.0038639235
6	0xbaaad231	-0.0013032613
7	0xbb95f2f8	-0.0045760833
8	0xba0322ef	-0.0005002459
9	0xbaca65d5	-0.0015441725
10	0xbae1d01b	-0.0017228158
11	0xbb9c4046	-0.004768404
12	0x39d6b5fd	0.00040952853
13	0xbb4c85ec	-0.0031207753
14	0xbb443276	-0.0029937304
15	0x3b6920a1	0.0035572427
16	0x3a1a2835	0.0005880625
17	0xbb302c0f	-0.002688173
18	0x3b9c4edd	0.0047701434
19	0x3b689a8a	0.0035492503
20	0x3a4f5d4b	0.0007910325
21	0x3b5027fb	0.0031762111
22	0xbb09e7fb	-0.0021042812
23	0xba57bfde	-0.00082301896
24	0xba5890bb	-0.00082613126
25	0xbb75d4b2	-0.003751081
26	0xbb6823e4	-0.0035421783
27	0xbafa7197	-0.0019107339
28	0xba960ac7	-0.0011447304
29	0x3b3f50c8	0.0029192436
30	0x3b9d269e	0.0047958633
31	0xbb0e669d	-0.0021728643

running_var f4 [32]
0	0x3907d836	0.00012955148
1	0x38da0573	0.00010396065
2	0x3888b1dd	6.518115e-05
3	0x388d6aa2	6.743266e-05
4	0x38177c80	3.6117155e-05
5	0x38ef69de	0.000114161274
6	0x3794cc2b	1.7738048e-05
7	0x388f75f4	6.840742e-05
8	0x390562d9	0.00012720692
9	0x38e07ac4	0.00010704019
10	0x38d32132	0.00010067447
11	0x38a442f6	7.832602e-05
12	0x38c0893b	9.1808346e-05
13	0x38f6597e	0.00011746863
14	0x38795913	5.9449183e-05
15	0x38346638	4.3010543e-05
16	0x378b22dc	1.6586324e-05
17	0x39054cfb	0.00012712546
18	0x38b412ae	8.586548e-05
19	0x380f7b76	3.420884e-05
20	0x363bfc25	2.801194e-06
21	0x3888759c	6.506892e-05
22	0x3902d1cb	0.0001247592
23	0x38f15f0f	0.000115094816
24	0x388e55de	6.787082e-05
25	0x38eb95f2	0.00011233603
26	0x38b0c878	8.429674e-05
27	0x38c54e0d	9.40823e-05
28	0x38be1913	9.0645764e-05
29	0x38663f80	5.4895412e-05
30	0x386a1df7	5.5817854e-05
31	0x385102ee	4.983221e-05

weight f4 [2, 736]
0	0x3ca2ce9d	0.019873912
1	0x3dbf01be	0.09326504
2	0x3def13ba	0.116736844
3	0x3df4f8f3	0.11961546
4	0x3e0b69b9	0.13614549
5	0x3de8c281	0.11365224
6	0x3dbac536	0.09119646
7	0x3d9c199b	0.07622071
8	0x3d8f5691	0.06998933
9	0x3d93b72c	0.07212672
10	0x3d4216ef	0.047385152
11	0x3d47b1cc	0.048753545
12	0xbbcd8f21	-0.006273166
13	0x3cc8b14d	0.024498606
14	0x3d73ccfb	0.059521656
15	0x3ca98dc4	0.020697482
16	0x3c42dcd3	0.011893469
17	0x3bf03201	0.0073301797
18	0x3d0a8b14	0.03382404
19	0x3d1b160f	0.037862834
20	0x3c4fb0d0	0.012676433
21	0x3c17b56c	0.009259563
22	0x3bcc1877	0.0062285024
23	0xbdddcfc8	-0.10830647
24	0xbe11a30a	-0.1422235
25	0xbdbeb43f	-0.09311723
26	0xbd50e94c	-0.05100374
27	0xbd680b0a	-0.056651153
28	0xbd308702	-0.043097503
29	0xbc7fbeb5	-0.015609433
30	0x3bfd2d41	0.007726342
31	0x3bdfca45	0.0068295323
32	0xbb1fc1f9	-0.0024377091
33	0x3c85a846	0.01631559
34	0x3c80d314	0.01572565
35	0x3bcaf0bb	0.006193248
36	0xbb037f90	-0.0020065047
37	0x3ab62a4c	0.0013898103
38	0x3d3b368b	0.045706313
39	0x3d0d4ca4	0.03449692
40	0x3b91ecf2	0.004453295
41	0x3cda765d	0.026667768
42	0x3c72cb54	0.014818985
43	0x3b97f82b	0.004637738
44	0x3c9a380c	0.018825553
45	0x3cfbf21d	0.030755097
46	0x3d8b89d9	0.06813402
47	0x3da46bfb	0.08028408
48	0x3d408dd1	0.047010247
49	0x3cc18f2c	0.02362784
50	0x3ba133ff	0.0049195285
51	0xbc122bbe	-0.008921562
52	0xbc399ce9	-0.011328914
53	0xbcc59a01	-0.024121286
54	0xbce9f88f	-0.028560905
55	0xbcd3d269	-0.025857167
56	0xbd0cf0cd	-0.034409333
57	0xbd2ed449	-0.04268292
58	0xbcffef89	-0.031242149
59	0xbc05baa8	-0.008162178
60	0x3bb799f1	0.005603068
61	0xbce15b54	-0.027509369
62	0xbcb177e1	-0.021663608
63	0x3b184c78	0.0023238938
64	0x3bdb8827	0.0066995802
65	0xbbe9f744	-0.007140072
66	0xbd1397b2	-0.03603334
67	0xbd2a1776	-0.04152628
68	0xbcc2410e	-0.023712661
69	0x3d94aede	0.07259916
70	0x3dba634b	0.0910097
71	0x3d489006	0.048965476
72	0x3cb8ce10	0.022559196
73	0x399f1bdf	0.0003034761
74	0xbc6546d4	-0.0139939375
75	0xbc94f1b0	-0.018181652
76	0xbcbe4100	-0.023224354
77	0xbcf1e6fa	-0.029529084
78	0xbd04a8ff	-0.03238773
79	0xbd2ce85f	-0.042213794
80	0xbd50c878	-0.050972432
81	0xbd146ad9	-0.03623471
82	0x39b66133	0.00034786164
83	0xbb978ff4	-0.004625315
84	0xbd1aa820	-0.037757993
85	0xbccf1360	-0.025277793
86	0x3ad8b8f6	0.0016534615
87	0x3ba28524	0.0049597193
88	0xbc96721d	-0.01836496
89	0xbd3eaa04	-0.04654886
90	0xbd2ce277	-0.04220816
91	0xbcff2934	-0.031147577
92	0xbd451cca	-0.04812316
93	0xbd876b35	-0.06612245
94	0xbd2b4c85	-0.04182102
95	0xbcc529d3	-0.024067795
96	0xbca9a793	-0.020709788
97	0xbc42e70b	-0.011895905
98	0xbb8951b3	-0.0041906475
99	0x3b19f89e	0.0023494135
100	0x3b94b24e	0.004537857
101	0x3af366f7	0.0018570115
102	0x3c26e9fd	0.010187623
103	0x3c2f0f05	0.010684733
104	0x3bc44927	0.0059901658
105	0xb86d8870	-5.663227e-05
106	0x3b136a27	0.0022493692
107	0x3bdd4135	0.006752158
108	0x3bc91c47	0.006137404
109	0xbb7980f1	-0.003807124
110	0x3bfee49b	0.0077787167
111	0x3c2e1ea0	0.010627419
112	0x3c04c497	0.008103511
113	0x3c8ca54e	0.017168667
114	0x3c965d23	0.018354958
115	0xbddc63d2	-0.10761227
116	0xbe26c016	-0.16284212
117	0xbdda775b	-0.106672965
118	0xbd716f64	-0.05894412
119	0xbd85e179	-0.06537146
120	0xbd2e3d44	-0.042538896
121	0xbce75f07	-0.028243555
122	0x3b73bb76	0.0037190593
123	0x3c58afc1	0.013225497
124	0x3b4edf8f	0.0031566357
125	0x3c95cd96	0.018286508
126	0x3c86be26	0.016448092
127	0xbba8653b	-0.0051390207
128	0xbc4dfe3e	-0.012572823
129	0x3bda0e18	0.006654512
130	0x3d2b22f3	0.041781377
131	0x3ccecfaa	0.025245506
132	0x3a3586e0	0.00069247
133	0x3cfe61f5	0.031052569
134	0x3c230d95	0.009951969
135	0x3bd44193	0.0064775436
136	0x3cc522b1	0.024064394
137	0x3d0d4018	0.034484953
138	0xbcd825d8	-0.026385233
139	0xbd1a6cb7	-0.037701335
140	0xbccc982a	-0.024974901
141	0xbc7fcdd8	-0.015613042
142	0xbc5b9213	-0.013401526
143	0xbc3601d1	-0.0111088315
144	0xbbb1a22b	-0.0054209433
145	0x3a851132	0.0010152219
146	0x3b67c417	0.0035364681
147	0x3b5341f8	0.0032235365
148	0x3bd1dd07	0.0064045223
149	0x3be11aed	0.006869665
150	0x3ac6f899	0.0015180289
151	0x3a2edf41	0.00066708407
152	0xbaa53330	-0.0012603756
153	0x3ac2fc07	0.0014876135
154	0x3be6a3c1	0.007038564
155	0x3ae5c9f2	0.0017531498
156	0x3b9ee671	0.004849248
157	0x3ba5cab2	0.0050595636
158	0x3c0eb414	0.008709926
159	0x3c123cef	0.0089256605
160	0x3c1f4687	0.009721405
161	0xbd931910	-0.07182515
162	0xbdba6384	-0.09101012
163	0xbd1dd0b4	-0.038529113
164	0x3b51c39f	0.0032007468
165	0x3cc80dbf	0.024420617
166	0x3d16f6c0	0.036856413
167	0x3d2cab51	0.042155568
168	0x3d357319	0.04429922
169	0x3d712bf9	0.058879826
170	0x3d5ead55	0.05436452
171	0x3d87dfdd	0.066344954
172	0x3d462a5c	0.04838024
173	0x3d082127	0.03323474
174	0x3cb46fac	0.022025906
175	0x3c8b9240	0.01703751
176	0x3c9358ed	0.017986739
177	0x3bb184b8	0.0054174326
178	0x3c34b812	0.011030214
179	0x3c3db69e	0.011579184
180	0x3c6f6738	0.014612012
181	0x3cbd8c62	0.023138229
182	0x3cd52d4e	0.02602258
183	0x3d2bc9f7	0.041940656
184	0xbd6d9529	-0.05800358
185	0xbca3ef7b	-0.020011654
186	0x3d353d94	0.04424818
187	0x3db1023d	0.08643005
188	0x3df18b91	0.11794198
189	0x3e061921	0.13095523
190	0x3de42778	0.111403406
191	0x3dc6e019	0.09710712
192	0x3de68942	0.112566486
193	0x3ded2aff	0.115804665
194	0x3dd22b6c	0.10262188
195	0x3dbc7c6f	0.09203421
196	0x3cdcdbcd	0.026960278
197	0x3d2ac75d	0.041694034
198	0x3d8b0793	0.06788554
199	0x3cf41c0d	0.029798532
200	0x3bdc5c27	0.0067248526
201	0x3b71446a	0.003681446
202	0x3d1a0b49	0.03760842
203	0x3cf86cf8	0.030325398
204	0x3ca257c1	0.019817235
205	0x3cf678ab	0.030086836
206	0x3d19dce1	0.037564162
207	0x3d0e12b4	0.034685805
208	0x3dc0654c	0.09394321
209	0x3dd73658	0.10508412
210	0x3dc02ec3	0.09383919
211	0x3dd26505	0.10273174
212	0x3dc56e51	0.09640182
213	0x3d93b497	0.07212179
214	0x3d5c79ba	0.053827025
215	0x3d5315cf	0.05153447
216	0x3d4f4517	0.050603
217	0x3d0c7d32	0.034299083
218	0x3ceb0e27	0.028693272
219	0x3acac30b	0.0015469504
220	0x3c811da1	0.015761198
221	0x3cfec226	0.031098437
222	0x3c936e35	0.017996887
223	0x3c11bbcb	0.008894871
224	0x3b6f59ed	0.0036522106
225	0x3cfad6f2	0.030620072
226	0x3d010256	0.03149637
227	0x3c4580ba	0.012054617
228	0x39bb4b08	0.00035723322
229	0x3bd4f17b	0.0064985133
230	0xbdcb5707	-0.099287085
231	0xbde5b2a7	-0.11215716
232	0xbd2c2e51	-0.04203636
233	0x3ca03281	0.019555332
234	0x3d57a1f0	0.05264467
235	0x3d94e78c	0.072707266
236	0x3d855e15	0.06512085
237	0x3d96a779	0.073561616
238	0x3d9ec6c4	0.07752755
239	0x3db5b457	0.08872288
240	0x3dd2b1be	0.10287808
241	0x3db2346f	0.08701407
242	0x3d322733	0.043494415
243	0x3d1a32cd	0.037646104
244	0x3d672f55	0.056441624
245	0x3d29e95b	0.04148231
246	0x3bb3f803	0.005492212
247	0x3c323507	0.0108769005
248	0x3d01099f	0.031503316
249	0x3c6ac948	0.014330216
250	0x3cdb40f3	0.026764369
251	0x3d440813	0.047859263
252	0x3d39ff1d	0.04540931
253	0xbda98c74	-0.082787424
254	0xbdf43c32	-0.11925544
255	0xbda2ecd4	-0.07955328

bias f4 [2]
0	0xbc87c1a8	-0.016571835
1	0x3c87f12a	0.016594488
